data.pth (torch, 5418 bytes, 6 tensors)

l1.weight f4 [8, 54]
-0.07002024 -0.09762257 0.5778109 0.10232808 0.51163214 0.62435305 0.4363741 0.5287972
0.51781315 0.6211464 0.30134457 -0.4032275 0.09632989 -0.49645784 -0.081467725 -0.36767077
0.11266088 0.67141616 -0.562373 0.26670164 -0.15413028 0.2590025 0.24238317 0.0032184212
0.34073862 0.32985258 -0.55475163 -0.23504482 -0.28934267 -0.31869015 0.499296 -0.49380141
-0.13892418 0.7694343 -0.12362016 -0.39946386 -0.19515336 0.41955703 0.5223783 0.61646754
0.30154574 -0.44741365 -0.40354195 -0.112887785 0.43550456 0.00085358473 -0.68998766 -0.055758886
0.11159369 -0.5388355 -0.20758218 -0.36588484 0.5890717 0.52033716 0.46116787 0.117494546
-0.21222326 -0.12953012 -0.09956082 -0.48787695 -0.29768226 -0.49276072 -0.1302135 -0.333155
0.044763878 0.61571604 0.071672276 0.55001247 0.08715137 0.37875378 0.056675483 -0.44312483
0.48995486 0.03922373 0.13175862 -0.044632122 -0.10886807 0.40530276 0.34177202 -0.001879432
0.44674823 -0.31855637 0.32156593 -0.40445688 -0.2693035 0.6539155 0.21074691 -0.39424998
-0.26692653 0.36603433 0.32566333 -0.304909 -0.13724926 -0.20207283 -0.26551375 0.47507533
0.40999004 0.06808323 0.22006367 -0.31552342 0.60997015 0.21674378 0.15219752 0.651259
0.5086382 0.5552705 -0.200825 0.04085774 0.54687065 0.30411637 -0.30840912 -0.20279674
-0.033803284 -0.3598716 -0.13350599 -0.41054603 -0.24915154 -0.3396915 -0.24306077 0.17560793
0.18015803 0.49188402 0.15270734 0.27526549 -0.12918931 -0.3619953 0.37754378 -0.37901613
0.54540426 -0.2783698 -0.27038994 0.0010892962 0.2506948 -0.2145631 0.37105688 0.24278821
0.43868232 0.20821951 -0.20059092 0.40206447 0.40198278 -0.4909602 0.23185866 0.15059374
0.31227615 -0.33695215 -0.21552065 -0.17841652 0.037718926 0.47764674 0.25768006 0.14383939
-0.04889364 0.2106286 0.8457247 0.37329295 0.14444326 0.6178402 0.23409398 0.46729675
-0.20639059 0.13620123 0.51750475 0.41655785 -0.15821315 0.038979914 -0.14206894 0.6492162
0.07152028 -0.19137523 0.059622448 -0.19307965 0.018817315 0.21217139 0.17466857 0.104149066
0.31198707 -0.13577108 0.014199164 0.6960827 0.52187675 -0.27946213 0.33563554 -0.25004146
-0.25018525 -0.11399207 -0.059787914 0.044889536 0.6137222 0.062669165 0.45190787 0.16276884
0.63673264 0.24577689 0.36819032 -0.087369375 0.17276327 -0.10382694 0.43632632 -0.103496954
0.026885947 -0.038779065 0.4521525 0.5680054 0.1801472 0.23071277 0.12988973 0.3412607
0.679002 0.29237127 0.25256038 0.73414254 -0.15367743 0.45988294 0.14019002 0.33910906
-0.21042699 -0.12118619 0.00045152268 0.41809222 0.38624617 -0.577635 -0.10481681 -0.25834063
-0.17338258 -0.1037817 0.4934012 0.6335254 0.20537889 0.65196294 -0.25383478 0.47549865
0.3728751 -0.57777464 0.13191056 0.6690409 -0.18242553 0.7468754 0.7450136 0.681778
0.42432028 0.48753154 0.050443757 -0.33166412 -0.14901172 -0.31602925 -0.28338715 0.6291575
0.054581743 -0.0627011 -0.0982602 0.55028147 0.015275013 -0.07883047 -0.069992214 0.009689449
00000000: c666 8fbd 58ee c7bd 6aeb 133f 6291 d13d
00000010: 53fa 023f 9ad5 1f3f 6d6c df3e 415f 073f
00000020: 678f 043f 7303 1f3f d649 9a3e d673 cebe
00000030: 9b48 c53d b92f febe 8dd8 a6bd 583f bcbe
00000040: bfba e63d eee1 2b3f adf7 0fbf 1e8d 883e
00000050: 54d4 1dbe fa9b 843e 4b33 783e 26ec 523b
00000060: 4b75 ae3e 70e2 a83e 3404 0ebf 97af 70be
00000070: b924 94be 5b2b a3be baa3 ff3e 8ad3 fcbe
00000080: 2442 0ebe a5f9 443f 912c fdbd 8786 ccbe
00000090: 48d6 47be 2ed0 d63e 96ba 053f d1d0 1d3f
000000a0: 3464 9a3e 6713 e5be 0d9d cebe b631 e7bd
000000b0: 74fa de3e 1ac3 5f3a 08a3 30bf 6e63 64bd
000000c0: 3c8b e43d 20f1 09bf 6c90 54be 4255 bbbe
000000d0: 67cd 163f d134 053f 321e ec3e fba0 f03d
000000e0: 0e51 59be 8ba3 04be 8be6 cbbd 02cb f9be
000000f0: cf69 98be 224b fcbe b056 05be 4b93 aabe
00000100: 545a 373d 919f 1d3f eac8 923d 9ecd 0c3f
00000110: 6b7c b23d 04ec c13e 8d24 683d 42e1 e2be
00000120: 5ddb fa3e 10a9 203d bbeb 063e 2cd0 36bd
00000130: 39f6 debd d883 cf3e befc ae3e 4657 f6ba
00000140: 2fbc e43e d219 a3be 4aa4 a43e f914 cfbe
00000150: 26e2 89be 0267 273f 0ace 573e 22db c9be
00000160: 98aa 88be da68 bb3e 58bd a63e 081d 9cbe
00000170: 128b 0cbe 2eec 4ebe 6bf1 87be 133d f33e
00000180: 37ea d13e 386f 8b3d 5f58 613e 498c a1be
00000190: 0127 1c3f 15f2 5d3e abd9 1b3e e9b8 263f
000001a0: 1d36 023f 3526 0e3f 12a5 4dbe 725a 273d
000001b0: b7ff 0b3f 24b5 9b3e cde7 9dbe f3a9 4fbe
000001c0: 5075 0abd 1741 b8be cbb5 08be 1733 d2be
000001d0: 9521 7fbe 0bec adbe ece4 78be 91d2 333e
000001e0: 597b 383e 39d8 fb3e 505f 1c3e 99ef 8c3e
000001f0: 344a 04be 7357 b9be 6b4d c13e 670e c2be
00000200: 9d9f 0b3f 7d86 8ebe 8d70 8abe b7c6 8e3a
00000210: 125b 803e 6eb6 5bbe 2bfb bd3e 799d 783e
00000220: f89a e03e 7f37 553e b567 4dbe 65db cd3e
00000230: b0d0 cd3e 235f fbbe 5b6c 6d3e 3f35 1a3e
00000240: a9e2 9f3e fe84 acbe 72b1 5cbe d2b2 36be
00000250: 297f 1a3d 1d8e f43e a4ee 833e a24a 133e
00000260: b344 48bd 06af 573e 6a81 583f 4120 bf3e
00000270: efe8 133e c62a 1e3f 55b6 6f3e 8541 ef3e
00000280: 0e58 53be 5678 0b3e 317b 043f 1247 d53e
00000290: a102 22be 67a9 1f3d 857a 11be 0833 263f
000002a0: 3979 923d def7 43be ab36 743d acb6 45be
000002b0: c526 9a3c 7543 593e 51dc 323e 1b4c d53d
000002c0: c5bc 9f3e 9307 0bbe 9ca3 683c 7a32 323f
000002d0: b799 053f a915 8fbe 6cd8 ab3e 6f05 80be
000002e0: 4818 80be ad74 e9bd 2ce4 74bd 17de 373d
000002f0: e61c 1d3f b158 803d 7860 e73e e0ac 263e
00000300: e900 233f f0ac 7b3e 7183 bc3e b7ee b2bd
00000310: dbe8 303e 38a3 d4bd 2a66 df3e 36f6 d3bd
00000320: eb3f dc3c ccd6 1ebd 8880 e73e cd68 113f
00000330: 8278 383e f83f 6c3e d001 053e b9b9 ae3e
00000340: 13d3 2d3f b0b1 953e 984f 813e c4f0 3b3f
00000350: 9e5d 1dbe c775 eb3e f98d 0f3e b49f ad3e
00000360: 2c7a 57be 7730 f8bd 59ba ec39 2f10 d63e
00000370: 0fc2 c53e e3df 13bf 32aa d6bd 3945 84be
00000380: 348b 31be 808b d4bd 159f fc3e b82e 223f
00000390: d84e 523e 0be7 263f a2f6 81be 8f74 f33e
000003a0: 7ce9 be3e 0ae9 13bf 9013 073e 4446 2b3f
000003b0: c2cd 3abe 3a33 3f3f 36b9 3e3f 0189 2e3f
000003c0: 8240 d93e bc9d f93e 1d9e 4e3d e1cf a9be
000003d0: 8796 18be 96ce a1be 1f18 91be 7710 213f
000003e0: 1b91 5f3d 6f69 80bd a53c c9bd 3fdf 0c3f
000003f0: 0c44 7a3c df71 a1bd 1458 8fbd 7fc0 1e3c

l1.bias f4 [8]
0.9543588 0.49379003 0.48304036 1.0149351 0.5776445 0.5263586 0.35373193 0.63397133
00000000: dc50 743f 0cd2 fc3e 1151 f73e 65e9 813f
00000010: 83e0 133f 70bf 063f 5a1c b53e f24b 223f

l2.weight f4 [8, 8]
0.34663 0.5534986 0.6215555 0.4613322 -0.82398975 -0.90095747 -0.67690235 0.82891774
0.093552776 1.2707069 0.6794848 0.733285 0.45449543 -0.8244003 -0.1573536 0.35962954
0.40786353 0.37250796 0.5241052 0.58234143 -1.2996289 -0.8351612 -0.6010131 0.5039312
-0.25149316 -0.04462546 -0.16103101 -0.29948598 -0.2464725 -0.013153017 -0.091035455 0.19788107
-0.3132211 1.1499171 0.74004257 0.55876416 1.204337 -0.6598941 -0.15252604 1.1297458
1.293264 -0.8830446 -0.85716796 0.43490392 0.8624687 1.2242144 0.15495016 1.0112797
-0.505529 0.4180882 1.0480887 0.9348672 -0.85572976 0.7266936 0.8083619 -0.5288316
1.1635877 -1.0088463 -0.81454027 0.89127296 -0.60281783 -0.11598094 -0.7349839 -0.6267567
00000000: 7d79 b13e 16b2 0d3f 431e 1f3f bc33 ec3e
00000010: fef0 52bf 26a5 66bf 7949 2dbf f433 543f
00000020: 9998 bf3d 86a6 a23f b7f2 2d3f 91b8 3b3f
00000030: a0b3 e83e e60b 53bf 4d21 21be 5d21 b83e
00000040: 7dd3 d03e 5db9 be3e c22b 063f 5414 153f
00000050: 3d5a a6bf 20cd 55bf ffdb 19bf a301 013f
00000060: b6c3 80be 30c9 36bd 50e5 24be 3a56 99be
00000070: 4963 7cbe c07f 57bc cc70 babd 56a1 4a3e
00000080: 845e a0be 7c30 933f 6e73 3d3f 2b0b 0f3f
00000090: b727 9a3f d2ee 28bf c92f 1cbe 839b 903f
000000a0: ad89 a53f 360f 62bf 5c6f 5bbf baab de3e
000000b0: c0ca 5c3f 0fb3 9c3f 41ab 1e3e 9d71 813f
000000c0: 596a 01bf a80f d63e c527 863f 7553 6f3f
000000d0: 1b11 5bbf 9708 3a3f cef0 4e3f 8261 07bf
000000e0: 71f0 943f e021 81bf b685 50bf 772a 643f
000000f0: 4552 1abf 6a87 edbd e827 3cbf 2173 20bf

l2.bias f4 [8]
0.12700516 0.075682476 0.61554724 -0.113329545 0.17958453 0.66586715 0.21216528 0.46920857
00000000: a40d 023e 6aff 9a3d 8194 1d3f 5219 e8bd
00000010: 02e5 373e 4576 2a3f db41 593e 1b3c f03e

l3.weight f4 [7, 8]
0.2825467 0.2011323 -1.3594886 0.12689644 0.8296421 -1.1295725 -1.4405754 -0.64547586
-0.57294345 -1.2528609 -0.8419064 0.048297554 -0.99316835 -0.33048785 0.9062005 -0.8793757
0.24260345 -0.20111923 0.6515816 -0.22364113 -0.797033 -0.39031503 -0.47629923 0.95438397
-1.0801282 -0.39031667 -0.943623 -0.34757322 0.35839683 0.5840043 -1.2474852 -1.2601768
-1.0572053 0.26586616 -1.265418 -0.33753502 0.30409962 -1.2618184 0.44964376 -0.9035699
-1.1187426 -1.6017168 -1.1553452 0.13408607 -1.6177529 0.6178105 -1.0571812 0.5960227
0.8033263 0.017508524 0.8313386 0.04494509 0.15555869 -1.230644 -0.33454332 -1.0326674
00000000: f6a9 903e a0f5 4d3e b903 aebf 24f1 013e
00000010: 6d63 543f d595 90bf c664 b8bf e83d 25bf
00000020: 6cac 12bf bf5d a0bf 2e87 57bf a8d3 453d
00000030: 4840 7ebf b435 a9be c2fc 673f c41e 61bf
00000040: 0a6d 783e 33f2 4dbe 0dce 263f 2e02 65be
00000050: 5b0a 4cbf 5fd7 c7be 7edd f3be 8252 743f
00000060: a441 8abf 96d7 c7be 4791 71bf 1ef5 b1be
00000070: ca7f b73e 4e81 153f 98ad 9fbf 794d a1bf
00000080: 8152 87bf 9c1f 883e 38f9 a1bf 64d1 acbe
00000090: f2b2 9b3e 4483 a1bf b537 e63e 5b50 67bf
000000a0: f532 8fbf 0e05 cdbf 5ae2 93bf dc4d 093e
000000b0: 8712 cfbf d428 1e3f b751 87bf f294 183f
000000c0: cba6 4d3f 096e 8f3c 9bd2 543f 5818 383d
000000d0: c74a 1f3e be85 9dbf 4349 abbe 722e 84bf

l3.bias f4 [7]
-0.14689238 -0.03552405 -0.2134134 0.1775975 -0.13581924 0.21826911 -0.049460996
00000000: f56a 16be ab81 11bd 0b89 5abe 1edc 353e
00000010: 3314 0bbe f081 5f3e 9d97 4abd
