torch/data.pth (torch, 5418 bytes, 6 tensors)

l1.weight f4 [8, 54]
-0.10858655 0.289134 0.46811175 0.43700093 0.69891465 -0.3659755 0.15707685 0.32154834
0.4577958 0.5161869 0.59888464 0.7974485 0.20822243 0.87528133 0.2720775 0.5271683
0.58121043 -0.28097308 -0.13756762 0.5356297 -0.0537925 0.5855489 0.657904 0.9233864
0.43853557 0.57225615 -0.35671082 0.4583516 -0.19705476 0.143926 -0.0832643 0.9093063
0.1075557 0.4277799 0.40883425 0.62633747 -0.34873423 0.54984117 0.20239355 0.18546452
-0.14498952 -0.29166543 0.63120437 0.16937189 0.8085558 0.30665877 -0.3909687 -0.05234168
0.26545784 -0.5822818 0.60268855 -0.28153092 0.18459567 0.1408655 0.78620625 0.0991145
-0.42994812 0.31294358 -0.11376817 -0.83510786 -0.23531467 -0.32515255 -0.5928886 -0.16600578
0.3905878 -0.33512172 -0.32826728 -0.44776934 -0.16391672 -0.08254929 0.35943997 -0.7677972
0.43421894 0.6261925 0.6345001 0.569297 0.72908676 0.59565765 -0.13188086 0.44510043
0.41927415 -0.4769889 0.044105977 -0.5101498 -0.4394501 -0.31575918 0.5278887 -0.51713145
-0.2832152 -0.060137574 0.11646503 -0.55020183 -0.23417112 -0.25721633 -0.3543045 0.2766213
-0.3192112 -0.22235192 -0.45589224 -0.30820814 1.0479846 0.47526744 0.28288323 0.34986547
-0.11476867 0.3630019 -0.119480506 0.29681763 0.6963437 -0.13837299 0.5769291 -0.046245858
0.4157209 0.37088996 0.3967048 0.486327 0.7109029 0.5466376 -0.1736008 -0.21085842
0.1323242 -0.097696565 -0.18191226 -0.1649733 -0.08437389 0.3747462 -0.25106087 -0.18691924
0.63781905 -0.27284375 -0.20044187 -0.47633785 0.24566011 -0.13499945 -0.096151575 -0.5607815
0.22759095 -0.45002997 0.104543164 0.0048264316 0.5134751 0.49271232 -0.22004932 -0.22261283
0.022964347 0.6229683 0.33840847 0.33997923 0.12567094 -0.30500698 -0.01095919 -0.16273862
0.4159049 -0.238674 0.84446156 0.5705657 -0.021791924 -0.30881464 -0.19028953 -0.24209875
0.484931 0.5672219 -0.10415055 0.6996483 -0.72763866 -0.33092934 -0.25374845 0.10590465
-0.25248036 -0.6955001 -0.16908628 -0.7096346 -0.31591514 0.4382747 0.7101611 0.6697659
0.57615316 0.31127793 -0.23076373 0.15115748 0.4556326 -0.5491236 0.37765688 -0.54915226
-0.54911697 0.11113251 0.21997684 -0.43757898 0.9042333 0.92170274 0.71524554 0.70848334
0.1626773 0.6866086 -0.051531006 -0.7039222 0.6891161 0.3988518 0.55387306 -0.3119939
-0.11236114 -0.127568 0.14963816 0.6813384 0.5074211 0.6134123 0.262908 0.6920071
0.21601897 0.5036038 0.34661242 0.72843033 0.4717841 0.626034 -0.2767254 0.17211069
0.24447012 -0.120929234 0.5418454 -0.12166925 -0.42328662 -0.29468513 0.4005418 0.41376325
-0.13440636 0.37101203 -0.08776841 0.39343476 0.5683392 0.26554704 -0.15101866 0.44587427
-0.20703295 -0.29453954 -0.1479691 -0.29459423 0.2872915 -0.29461566 -0.29465225 -0.020195907
0.6372596 0.012416517 0.00057682005 -0.3876092 0.06581114 -0.3276957 -0.123390906 0.35124263
0.16736887 0.52916425 -0.10399853 0.35603738 0.084159434 -0.06898927 0.4884581 0.5825658
00000000: a062 debd 5f09 943e 58ac ef3e 96be df3e
00000010: 12ec 323f 2461 bbbe c1d8 203e fca1 a43e
00000020: 3664 ea3e d324 043f 8150 193f 9625 4c3f
00000030: 4338 553e 7012 603f be4d 8b3e 80f4 063f
00000040: 35ca 143f b4db 8fbe 87de 0cbe 071f 093f
00000050: 8655 5cbd 88e6 153f 666c 283f 0d63 6c3f
00000060: bc87 e03e 617f 123f cda2 b6be 10ad ea3e
00000070: b9c8 49be 5661 133e 7986 aabd 4cc8 683f
00000080: 2a46 dc3d f805 db3e b952 d13e a757 203f
00000090: 4b8d b2be 64c2 0c3f 4140 4f3e 69ea 3d3e
000000a0: 2278 14be 2c55 95be 9c96 213f d36f 2d3e
000000b0: 83fd 4e3f 6102 9d3e 0d2d c8be 3b64 56bd
000000c0: 17ea 873e 6c10 15bf cc49 1a3f d224 90be
000000d0: a606 3d3e 0c3f 103e d044 493f 8bfc ca3d
000000e0: 2922 dcbe 243a a03e 49ff e8bd a1c9 55bf
000000f0: 54f6 70be 657a a6be 8cc7 17bf 6bfd 29be
00000100: 20fb c73e 1395 abbe a612 a8be 0642 e5be
00000110: c9d9 27be 9a0f a9bd 8408 b83e 5b8e 44bf
00000120: f251 de3e 274e 203f 996e 223f 73bd 113f
00000130: 6ea5 3a3f 057d 183f c70b 07be 34e4 e33e
00000140: 1aab d63e e437 f4be 78a8 343d 2d99 02bf
00000150: 9aff e0be 30ab a1be b723 073f ba62 04bf
00000160: 9501 91be d152 76bd 3885 ee3d 07da 0cbf
00000170: 8eca 6fbe dcb1 83be 6667 b5be 4fa1 8d3e
00000180: a76f a3be 39b0 63be b56a e9be 75cd 9dbe
00000190: 5c24 863f 4156 f33e 12d6 903e 9121 b33e
000001a0: d60b ebbd 63db b93e 32b2 f4bd 7bf8 973e
000001b0: 9543 323f a6b1 0dbe a0b1 133f 4c6c 3dbd
000001c0: 5fd9 d43e 4ae5 bd3e e41c cb3e daff f83e
000001d0: bcfd 353f 71f0 0b3f 68c4 31be 45eb 57be
000001e0: ff7f 073e 2315 c8bd 3547 3abe c3ee 28be
000001f0: 38cc acbd bcde bf3e 0d8b 80be c267 3fbe
00000200: 1c48 233f 2db2 8bbe a240 4dbe 8ee2 f3be
00000210: 538e 7b3e 4c3d 0abe 1eeb c4bd 608f 0fbf
00000220: 9a0d 693e 546a e6be ba1a d63d 0b27 9e3b
00000230: 1b73 033f ca44 fc3e 9c54 61be 9ef4 63be
00000240: ba1f bc3c da7a 1f3f e043 ad3e c211 ae3e
00000250: e2af 003e e029 9cbe 2d8e 33bc f4a4 26be
00000260: 7df1 d43e f566 74be a22e 583f 9810 123f
00000270: fa84 b2bc f41c 9ebe 42db 42be bce8 77be
00000280: e048 f83e 7435 113f e24c d5bd 271c 333f
00000290: 8746 3abf 926f a9be 51eb 81be 8ae4 d83d
000002a0: 1b45 81be 4b0c 32bf f424 2dbe 9daa 35bf
000002b0: a1bf a1be 8b65 e03e 1ecd 353f c775 2b3f
000002c0: c67e 133f d25f 9f3e 544d 6cbe 07c9 1a3e
000002d0: ad48 e93e 5d93 0cbf 3e5c c13e 3e95 0cbf
000002e0: ee92 0cbf 7199 e33d 9c41 613e 5a0a e0be
000002f0: d57b 673f b6f4 6b3f 551a 373f 2a5f 353f
00000300: e194 263e 95c5 2f3f 2d12 53bd 3f34 34bf
00000310: ea69 303f 4e36 cc3e a0ca 0d3f aabd 9fbe
00000320: 991d e6bd 30a1 02be bf3a 193e 326c 2e3f
00000330: 59e6 013f 9708 1d3f e19b 863e 6127 313f
00000340: 1434 5d3e 2eec 003f 2f77 b13e 697a 3a3f
00000350: b08d f13e c443 203f f4ae 8dbe c93d 303e
00000360: 6056 7a3e bfa9 f7bd 61b6 0a3f ba2d f9bd
00000370: 06b9 d8be f8e0 96be d113 cd3e c7d8 d33e
00000380: d2a1 09be 4af5 bd3e edbf b3bd 4870 c93e
00000390: ae7e 113f c8f5 873e a3a4 1abe a249 e43e
000003a0: 7200 54be e3cd 96be 3685 17be 0ed5 96be
000003b0: df17 933e ddd7 96be a9dc 96be e371 a5bc
000003c0: 7223 233f a66e 4b3c bd35 173a b774 c6be
000003d0: fec7 863d bbc7 a7be 5fb4 fcbd 13d6 b33e
000003e0: bf62 2b3e 4f77 073f 2efd d4bd 884a b63e
000003f0: c85b ac3d 3f4a 8dbd 2e17 fa3e 0823 153f

l1.bias f4 [8]
0.7818634 0.977792 0.80195427 0.54912645 0.2946856 0.35216781 -0.05638758 0.8557416
00000000: 3328 483f 9450 7a3f e04c 4d3f 8d93 0c3f
00000010: 08e1 963e 574f b43e aaf6 66bd e211 5b3f

l2.weight f4 [8, 8]
0.7593819 1.198809 -0.18863064 0.26392564 -0.44395107 -0.93628365 -0.26133436 0.26209715
1.4032125 0.41512012 0.8444626 -0.74145085 1.1332743 -0.29135314 0.2162873 -0.62582654
0.15153976 0.4538087 0.85173345 -0.6378331 -0.3035298 0.29407364 -0.17516169 1.2911929
0.5932337 -1.2148216 0.08646456 1.344847 0.15607303 0.18220972 -0.036087304 0.75708836
0.58343405 -0.6294287 1.0543684 -0.670333 1.1880428 0.51266366 -0.03509076 -0.43303016
-0.0077116126 -0.48274773 0.057268165 0.5632899 -1.1204599 0.678027 -0.104664534 0.29371214
-0.15258524 -0.25124598 -0.29458755 0.13009572 -0.18590415 -0.06917769 -0.052216202 -0.34322986
-0.6832481 1.324649 0.6119302 0.5659616 0.7018121 1.0584022 -0.36217093 -1.4217858
00000000: da66 423f 9372 993f 6428 41be 4321 873e
00000010: 8e4d e3be 49b0 6fbf 9ecd 85be 9931 863e
00000020: 789c b33f a08a d43e b32e 583f b9cf 3dbf
00000030: 220f 913f 3d2c 95be 6b7a 5d3e 2b36 20bf
00000040: 3d2d 1b3e 9d59 e83e 340b 5a3f 0849 23bf
00000050: 4268 9bbe d290 963e 965d 33be cf45 a53f
00000060: 2ade 173f 467f 9bbf 5514 b13d f223 ac3f
00000070: 9cd1 1f3e 2f95 3a3e 48d0 13bd 8bd0 413f
00000080: ef5b 153f 3d22 21bf 8bf5 863f f29a 2bbf
00000090: c911 983f ed3d 033f 54bb 0fbd 21b6 ddbe
000000a0: b2b1 fcbb b62a f7be 0692 6a3d c433 103f
000000b0: 3b6b 8fbf 2d93 2d3f 5c5a d6bd 7061 963e
000000c0: 4e3f 1cbe 50a3 80be 2ed4 96be d037 053e
000000d0: a85d 3ebe 08ad 8dbd a8e0 55bd d3bb afbe
000000e0: 59e9 2ebf 198e a93f 75a7 1c3f dce2 103f
000000f0: f5a9 333f b979 873f 786e b9be 14fd b5bf

l2.bias f4 [8]
0.49619097 0.285848 0.60193783 0.4272908 0.10922672 0.30070058 -0.1241373 0.19978876
00000000: be0c fe3e ab5a 923e 9918 1a3f dcc5 da3e
00000010: 42b2 df3d 6df5 993e b23b febd 6d95 4c3e

l3.weight f4 [7, 8]
-0.22315258 0.36870947 -1.0846564 0.35667354 0.30858666 -1.3172611 -0.017655104 -0.8543149
0.43380538 -1.2918578 -1.2490425 0.95835173 -0.9376848 0.55166113 -0.040123075 -0.6938795
-0.39923015 -1.2942706 1.0857954 0.27107102 -0.1550338 0.3393506 0.16543087 -0.8132034
1.1161308 0.32266113 0.7091368 -1.318414 -0.8074197 -1.3023816 -0.32010126 -0.6994895
-0.30229798 -1.2385652 -0.9397123 -0.32602128 -0.9607671 0.74958175 -0.13894016 1.097573
-1.1868957 0.5820453 -0.2134358 -0.71140414 0.9220296 -0.017617928 0.33421078 -0.3055742
-0.12218971 0.13573356 0.0666051 -1.4778129 0.15990452 -1.5796922 0.29404095 0.8295282
00000000: 1c82 64be 7dc7 bc3e 05d6 8abf ea9d b63e
00000010: 12ff 9d3e 039c a8bf 70a1 90bc 62b4 5abf
00000020: bd1b de3e 995b a5bf a0e0 9fbf 8a56 753f
00000030: 1c0c 70bf aa39 0d3f 1858 24bd 16a2 31bf
00000040: e567 ccbe a9aa a5bf 58fb 8a3f d2c9 8a3e
00000050: 2ec1 1ebe 5dbf ad3e b666 293e 192e 50bf
00000060: 60dd 8e3f d733 a53e fd89 353f cac1 a8bf
00000070: 0fb3 4ebf 71b4 a6bf 50e4 a3be be11 33bf
00000080: cdc6 9abe 4e89 9ebf fc90 70bf 43ec a6be
00000090: d5f4 75bf 97e4 3f3f 5446 0ebe 467d 8c3f
000000a0: 33ec 97bf ec00 153f ea8e 5abe 951e 36bf
000000b0: 220a 6c3f 7953 90bc ad1d ab3e 3974 9cbe
000000c0: 993e fabd bdfd 0a3e 4168 883d f928 bdbf
000000d0: 03be 233e 5b33 cabf 898c 963e f65b 543f

l3.bias f4 [7]
-0.4723693 -0.08309287 0.29658753 0.4396666 0.38231903 -0.08858916 -0.07167951
00000000: 64da f1be 982c aabd 52da 973e fb1b e13e
00000010: 52bf c33e 3c6e b5bd b5cc 92bd
