tensorflow/data.pth (torch, 5418 bytes, 6 tensors)

l1.weight f4 [8, 54]
0	0xbe8707ac	-0.2637304
1	0x3ed7cc13	0.42147884
2	0x3ee7ea02	0.4529572
3	0xbeafa3d1	-0.3430467
4	0x3b81dfa2	0.0039634267
5	0x3f5ce121	0.8628102
6	0x3e9d820d	0.30763283
7	0x3ed9d8fa	0.42548352
8	0x3eb19a7f	0.34688184
9	0x3ee14ca3	0.44003782
10	0xbe81853d	-0.25296965
11	0xbe8940cc	-0.2680725
12	0x3e6f82e2	0.23389772
13	0xbe07bb80	-0.1325512
14	0x3e77ea28	0.24210417
15	0xbe49f99c	-0.19724125
16	0xbea6334d	-0.32461014
17	0x3f2b7724	0.6697867
18	0x3e160a0f	0.14652275
19	0xbf13c730	-0.5772581
20	0xbde89758	-0.113569915
21	0xbf13d5b8	-0.57747984
22	0xbf13ccc3	-0.57734317
23	0xbf0a592b	-0.5404231
24	0x3db63661	0.08897091
25	0xbea22d7c	-0.31675327
26	0x3d3560c5	0.04428174
27	0x3ee426f9	0.44560984
28	0x3e5e95e6	0.21736869
29	0x3eca802f	0.3955092
30	0x3f3f65cb	0.747647
31	0xbdb82160	-0.08990741
32	0xbd636bae	-0.055522613
33	0x3edeec2c	0.4353956
34	0x3eb410dd	0.35169116
35	0xbead4dcf	-0.33848426
36	0x3ebeeb77	0.3728902
37	0x3f0f1394	0.5588925
38	0x3efcffe3	0.49413976
39	0x3ea68e4d	0.32530442
40	0x3f2e38a5	0.6805518
41	0x3d275142	0.040848978
42	0xbe57434f	-0.2102177
43	0x3ed3ca03	0.4136506
44	0x3ec94a36	0.3931443
45	0x3ecae254	0.396258
46	0xbf13d08d	-0.577401
47	0xbe4d6a8b	-0.20060174
48	0x3e02415f	0.1272025
49	0x3e30c957	0.17264305
50	0xbdc63ad1	-0.09679187
51	0x3d993f22	0.07482745
52	0x3ed67369	0.41884926
53	0x3e861e31	0.2619491
54	0xbd8d2246	-0.06891303
55	0x3f044545	0.51668197
56	0x3f177994	0.5916989
57	0x3e2d3a70	0.16916823
58	0x3f00a68d	0.50254136
59	0xbe024777	-0.12722574
60	0x3eee1fdd	0.46508685
61	0x3ece2a7d	0.4026679
62	0x3f20ec0f	0.62860197
63	0x3eaf6c61	0.34262374
64	0x3d02c37d	0.031924713
65	0xbe9b0f66	-0.30285186
66	0x3ecfa9cb	0.4055923
67	0xbe20e9a2	-0.15714124
68	0x3ebf39ec	0.37348878
69	0xbe4825da	-0.19545689
70	0x3cb9f088	0.022697702
71	0xbd02b3ad	-0.031909633
72	0xbe6059c3	-0.21909241
73	0x3e485b46	0.19566068
74	0xbe7cf13f	-0.24701403
75	0x3e466cb8	0.1937741
76	0x3e9c6716	0.30547398
77	0xbe1a49e0	-0.15067244
78	0x3e667a62	0.22507623
79	0xbd40262f	-0.046911415
80	0xbec9111a	-0.3927086
81	0x3f17283f	0.59045786
82	0xbdfa5700	-0.12223625
83	0x3ef729f2	0.4827419
84	0xbe717c03	-0.23582463
85	0xbe9199a0	-0.2843752
86	0xbe308319	-0.1723751
87	0x3eba3459	0.36368063
88	0x3efcfc0c	0.49411047
89	0xbe407148	-0.18793213
90	0x3d27e26f	0.04098743
91	0x3f07c784	0.5303881
92	0x3eed0d67	0.46299288
93	0x3f047e11	0.5175486
94	0xbe803159	-0.2503765
95	0xbf0039e3	-0.5008833
96	0xbe8717d5	-0.2638537
97	0x3f053bc6	0.5204433
98	0x3ee0ccee	0.4390635
99	0x3edc3629	0.4301007
100	0xbf0a1502	-0.53938305
101	0xbdcec7bc	-0.1009669
102	0xbc1257da	-0.008932078
103	0xbee0cd63	-0.43906698
104	0xbeb91c45	-0.3615438
105	0xbeacc27c	-0.3374213
106	0x3f02e0de	0.5112437
107	0x3e84ba93	0.25923595
108	0xbe1fb64f	-0.15596889
109	0xbe8a6462	-0.2702971
110	0xbee632dd	-0.4496068
111	0x3ebade89	0.36497906
112	0x3ef85a79	0.48506525
113	0xbf18e2fa	-0.5972134
114	0xbd4acbc5	-0.049510736
115	0xbe8e4491	-0.27786687
116	0xbef5e92f	-0.48029467
117	0xbe49492a	-0.19656816
118	0x3efa67e0	0.48907375
119	0xbe8e611d	-0.27808467
120	0x3e554f19	0.20830955
121	0xbe0dac9a	-0.13835374
122	0xbe4f4ac9	-0.20243372
123	0xbd8c4cf5	-0.06850616
124	0x3ed7be44	0.4213735
125	0xbf18d803	-0.5970461
126	0x3e88cefb	0.26720414
127	0x3efe2d47	0.4964392
128	0xbe266b6f	-0.1625192
129	0x3f2721dd	0.65286046
130	0x3f319713	0.69371146
131	0x3f1adf9e	0.6049746
132	0xbdb2b268	-0.087254345
133	0x3eebd2d2	0.4605928
134	0x3ec6a011	0.38793996
135	0xbddcf7d1	-0.10789455
136	0xbdb59eaf	-0.08868157
137	0xbee142ab	-0.43996176
138	0xbe82f6af	-0.2557883
139	0xbeae6e75	-0.34068647
140	0x3c3e9b38	0.011633687
141	0xbebc81f2	-0.3681789
142	0xbda8729b	-0.08224984
143	0xbd3a92bf	-0.045550104
144	0xbe3dbc33	-0.18528824
145	0xbf1d44da	-0.61433184
146	0xbe60b3ec	-0.21943635
147	0xbc86d74a	-0.01646008
148	0xbe7f22fe	-0.24915692
149	0x3edd6669	0.43242195
150	0xbe98a603	-0.29814157
151	0xbe33f524	-0.17573982
152	0xbeaff753	-0.3436838
153	0xbe0c44a0	-0.13698053
154	0xbf1949b4	-0.5987809
155	0xbe8ec02b	-0.27880988
156	0x3ea87e02	0.32908636
157	0x3ec3e3b0	0.3825965
158	0xbe66822a	-0.22510591
159	0x3e843636	0.2582261
160	0xbe664026	-0.22485408
161	0x3c4b83de	0.012421576
162	0x3f006141	0.501484
163	0x3ec0efa6	0.37682837
164	0xbda90b4f	-0.0825411
165	0xbde8dcea	-0.11370261
166	0xbed5fdfe	-0.41795343
167	0x3f494ec1	0.78635794
168	0x3d358149	0.04431275
169	0xbe87012e	-0.26368088
170	0x3ea43b39	0.32076433
171	0xbea0e954	-0.31428015
172	0xbe6aac46	-0.2291728
173	0x3f08821b	0.53323525
174	0x3e34fbc5	0.17674167
175	0x3f016b07	0.50553936
176	0x3ecdff0c	0.40233648
177	0x3ed8c090	0.42334414
178	0xbea2234b	-0.3166755
179	0x3f40d230	0.7532072
180	0xbe726d9c	-0.23674625
181	0xbf02732f	-0.50957006
182	0x3ebeed1a	0.3729027
183	0xbf0ffb28	-0.5624261
184	0xbf0c4f45	-0.54808456
185	0x3bfdd683	0.007746519
186	0x3ea5c4ff	0.3237686
187	0xbe36a803	-0.17837529
188	0xbe981298	-0.29701686
189	0x3e8a5615	0.270188
190	0xbc9a9e85	-0.018874416
191	0x3eddad4e	0.43296283
192	0x3f15d35f	0.5852565
193	0x3f272f36	0.65306413
194	0x3eaf88dc	0.34284103
195	0x3d55eb5c	0.05222641
196	0x3ec7b30d	0.39003792
197	0x3eb02cfc	0.3440932
198	0xbcb9231b	-0.022599747
199	0x3e9bccd1	0.304297
200	0xbd6feda5	-0.058576245
201	0xbbb2bf73	-0.0054549514
202	0x3f0b97bc	0.54528403
203	0xbecad1b1	-0.39613107
204	0x3ed4b01b	0.41540608
205	0x3ebfdec8	0.37474656
206	0x3f030d0c	0.5119178
207	0x3efbdee5	0.49193493
208	0x3f3c4702	0.7354585
209	0x3ecfd049	0.40588596
210	0xbe40da2f	-0.1883323
211	0xbe73c2f2	-0.23804834
212	0x3eafcbf9	0.34335306
213	0xbde70632	-0.112804785
214	0x3d14e9c0	0.036355734
215	0xbcfe403c	-0.031036489
216	0x3ef1d84f	0.47235343
217	0x3e215152	0.15753677
218	0x3e8bf60a	0.2733615
219	0x3ec02474	0.37527812
220	0x3ea74099	0.32666472
221	0xbeffb69f	-0.49944016
222	0x3e27474a	0.16335788
223	0x3e4a0b84	0.19730955
224	0x3c4d6a3c	0.012537535
225	0x3eb4b22b	0.3529218
226	0x3e954a16	0.29158086
227	0x3e46a8e1	0.1940036
228	0xbd219701	-0.03945065
229	0xbb92eba9	-0.0044836593
230	0x3e350110	0.17676187
231	0x3d85e7d7	0.065383606
232	0x3ea3482d	0.31891003
233	0xbeffb22e	-0.49940628
234	0xbdf39f46	-0.11895613
235	0x3f1bbc3e	0.6083411
236	0x3ed08229	0.40724304
237	0x3ee93408	0.4554751
238	0x3efd4a6d	0.49470845
239	0x3e7b9624	0.24568993
240	0x3e0b6efa	0.13616553
241	0x3ecbfa34	0.39839327
242	0xbeb26d5f	-0.3484907
243	0xbd8d04b7	-0.06885665
244	0xbe6d26a3	-0.2315927
245	0xbea5732b	-0.3231443
246	0xbe94e515	-0.29081026
247	0x3e5d7cd5	0.21629651
248	0x3e8523ee	0.26003975
249	0x3e91718e	0.28406948
250	0xbdc03eed	-0.09387002
251	0x3e703f89	0.23461737
252	0xbe139e80	-0.14415932
253	0xbd4a079b	-0.04932366
254	0x3e39f0da	0.18158284
255	0x3e228d9c	0.15874332

l1.bias f4 [8]
0	0x3f13d825	0.57751685
1	0x3ed56a0e	0.41682476
2	0x3f18eeb2	0.5973922
3	0x3f0ff866	0.562384
4	0x3effad09	0.49936703
5	0x3f5ddf0f	0.86668485
6	0x3f22c687	0.6358418
7	0x3ed7dffa	0.42163068

l2.weight f4 [8, 8]
0	0xbf592416	-0.8482069
1	0xbe944ad0	-0.28963327
2	0xbf7ac295	-0.9795316
3	0x3fa0e9e2	1.2571375
4	0x3f2b926e	0.6702031
5	0x3ea375a8	0.31925702
6	0x3f5e9b9c	0.8695619
7	0xbdada435	-0.08478586
8	0x3f3396e9	0.70152146
9	0xbf53d74e	-0.82750404
10	0xbe7ab236	-0.24482045
11	0x3f31d075	0.69458705
12	0xbf1569a8	-0.58364344
13	0x3f5f2311	0.8716288
14	0x3f9683eb	1.1759008
15	0xbf86820a	-1.0508435
16	0x3f0a34ae	0.5398663
17	0x3f4b4a6f	0.7941045
18	0xbf8e7b7c	-1.1131434
19	0x3d57e6f9	0.052710507
20	0x3f041c4b	0.5160567
21	0x3f2947ba	0.6612507
22	0xbde8aec2	-0.113614574
23	0x3f40e5a5	0.7535041
24	0xbf36683e	-0.7125281
25	0x3efaa1a0	0.48951435
26	0x3f63f965	0.8905242
27	0xbf0991dd	-0.53738195
28	0x3f8fb02b	1.1225637
29	0x3fb7ee1f	1.4369544
30	0xbbcbbb21	-0.006217376
31	0x3f8304c7	1.0235833
32	0x3d5082a3	0.050905835
33	0x3f21ad80	0.63155365
34	0xbfa0d75d	-1.2565724
35	0x3dcdadd9	0.100429244
36	0x3eecb671	0.46232942
37	0x3e2f65ef	0.17128728
38	0xbe9149a3	-0.28376493
39	0x3f811a9a	1.0086243
40	0x3f19801b	0.599611
41	0x3ed3e448	0.41385102
42	0x3e4c576d	0.19955225
43	0x3f2c55ca	0.67318404
44	0xbf628386	-0.8848194
45	0xbf783bc4	-0.96966195
46	0x3f932b3a	1.1497567
47	0x3e8e9eea	0.27855617
48	0x3faf033b	1.3672861
49	0x3f5cde3d	0.8627661
50	0xbf7d2edb	-0.9889962
51	0x3f8938fc	1.0720515
52	0xbf7864cf	-0.9702882
53	0x3ebf1f4e	0.3732857
54	0xbf00a8b9	-0.5025745
55	0x3f50f7df	0.8162822
56	0xbe1764f1	-0.147846
57	0x3e1a0366	0.15040359
58	0x3db5d1a2	0.08877875
59	0xbe3e5bd6	-0.1858972
60	0x3e3d02d1	0.18458106
61	0xbe0419ef	-0.12900518
62	0x3ddf208b	0.10894879
63	0xbe63c642	-0.22243598

l2.bias f4 [8]
0	0xbdf0dafd	-0.11760519
1	0x3f3f530f	0.7473611
2	0xbea315e5	-0.31852642
3	0x3ec885b5	0.3916451
4	0xbeb3c05b	-0.35107693
5	0x3d9c1eb5	0.076230444
6	0x3ef067ce	0.46954197
7	0xbec1696e	-0.3777575

l3.weight f4 [7, 8]
0	0x3f6f42bc	0.93461204
1	0x3e6853c6	0.22688207
2	0xbfa1de52	-1.2645972
3	0xbfc90257	-1.5703839
4	0xbf61b3cc	-0.88164973
5	0x3eb576ae	0.35442108
6	0xbf572430	-0.8403959
7	0xbea21e7a	-0.31663877
8	0xbebe7d89	-0.3720515
9	0xbf9ce864	-1.225842
10	0x3e99c0d9	0.30029944
11	0xbf5e7724	-0.86900544
12	0x3e11a4da	0.14223042
13	0x3f1b637e	0.6069869
14	0x3ef63329	0.48085907
15	0x3e9d8582	0.3076592
16	0xbe6c0bc2	-0.2305136
17	0x3f07fd2e	0.53120697
18	0xbeaee188	-0.34156442
19	0xbfea8755	-1.832255
20	0xbfb16cea	-1.3861363
21	0x3cb1bba7	0.021695925
22	0x3f633679	0.88754994
23	0xbe0a1bc5	-0.13487156
24	0xbfae6dcd	-1.3627259
25	0xbf747614	-0.9549267
26	0xbc6bd2fd	-0.014393565
27	0x3f90b97c	1.1306605
28	0xbee54be1	-0.44784454
29	0xbf41e301	-0.75737005
30	0xbf6d2cef	-0.9264669
31	0xbe46a491	-0.19398715
32	0xbf911f76	-1.1337726
33	0x3f49b7ba	0.7879597
34	0xbfa629ca	-1.2981503
35	0xbe97d47a	-0.29654294
36	0xbf0c24d6	-0.5474371
37	0x3ee53e24	0.44773972
38	0xbfa2442d	-1.2677056
39	0xbe1dda0a	-0.15415207
40	0xbf9518d3	-1.1648201
41	0xbf67f59a	-0.90609133
42	0x3ef7ab4c	0.48372877
43	0xbd65b491	-0.056080405
44	0x3f010677	0.5040049
45	0xbfa0eabc	-1.2571635
46	0x3eef2470	0.46707487
47	0x3e9a3e9d	0.30125895
48	0x3f449d96	0.7680296
49	0x3deff7de	0.11717199
50	0xbc977f5d	-0.018493349
51	0xbc91883f	-0.017765163
52	0x3c445bf4	0.011984814
53	0xbfa01dee	-1.2509134
54	0xbf078920	-0.5294361
55	0xbeb21d23	-0.34787855

l3.bias f4 [7]
0	0xbf13bf74	-0.5771401
1	0xbf073ab9	-0.5282398
2	0xbe3d711d	-0.1850018
3	0x3f2076cd	0.62681276
4	0x3f05b35a	0.52226794
5	0xbe1da290	-0.15394044
6	0xbde98088	-0.114014685
